mofan_python/net/net.pt (torch_old, 4471 bytes, 3 tensors)

weight f4 [10, 1]
-1.3229357 -1.1341159 0.5779635 -0.07428479 1.1861073 0.09677172 -0.26884833 -0.42469096
-0.18589506 0.088536635
00000000: f555 a9bf b62a 91bf 6af5 133f a022 98bd
00000010: 5dd2 973f 4030 c63d 7da6 89be 1871 d9be
00000020: 465b 3ebe b252 b53d

bias f4 [10]
-0.34616685 -0.5306845 -0.98976827 -0.55520415 -0.24213718 -0.3082044 0.65510947 -0.6602366
0.5429103 0.22765832
00000000: c83c b1be f0da 07bf 7461 7dbf dc21 0ebf
00000010: cff2 77be f8cc 9dbe 41b5 273f 4405 29bf
00000020: 2bfc 0a3f 431f 693e

weight f4 [1, 10]
0.659813 0.38478732 -0.28304473 0.18079868 1.0073652 0.13334122 0.25943777 0.04278794
-0.065161645 -0.0818253
00000000: 81e9 283f d802 c53e 3deb 90be 4a23 393e
00000010: 58f1 803f 9a8a 083e 07d5 843e 6842 2f3d
00000020: 7873 85bd 0694 a7bd
